name: "VGG_VOC0712_SSD_300x300_test"
layer {
    name: "data"
    type: "AnnotatedData"
    top: "data"
    top: "label"
    include {
        phase: TEST
    }
    transform_param {
        mirror: True
        scale: 0.00390625
        mean_value: 104.0
        mean_value: 104.0
        mean_value: 104.0
        mean_value: 104.0
        mean_value: 104.0
        mean_value: 104.0
        mean_value: 104.0
        mean_value: 104.0
        mean_value: 104.0
        mean_value: 104.0
        mean_value: 104.0
        mean_value: 104.0
        mean_value: 117.0
        mean_value: 117.0
        mean_value: 117.0
        mean_value: 117.0
        mean_value: 117.0
        mean_value: 117.0
        mean_value: 117.0
        mean_value: 117.0
        mean_value: 117.0
        mean_value: 117.0
        mean_value: 117.0
        mean_value: 117.0
        mean_value: 123.0
        mean_value: 123.0
        mean_value: 123.0
        mean_value: 123.0
        mean_value: 123.0
        mean_value: 123.0
        mean_value: 123.0
        mean_value: 123.0
        mean_value: 123.0
        mean_value: 123.0
        mean_value: 123.0
        mean_value: 123.0
    }
    data_param {
        source: "/home/liuky/HDD_1/workspace/C/caffe/data/custom_obj_detect/test_data"
        batch_size: 2
        backend: LMDB
    }
    annotated_data_param {
        label_map_file: "/home/liuky/HDD_1/workspace/C/caffe/examples/custom_obj_detect/labelmap_smoke.prototxt"
    }
}
layer {
  name: "slice"
  type: "Slice"
  bottom: "data"
  top: "data_1"
  top: "data_2"
  top: "data_3"
  slice_param {
    axis: 1
  }
}

layer {
  name: "conv1_1_1"
  type: "Convolution"
  bottom: "data_1"
  top: "conv1_1_1"
  param {
    lr_mult: 1.0
    decay_mult: 1.0
  }
  param {
    lr_mult: 2.0
    decay_mult: 0.0
  }
  convolution_param {
    num_output: 32
    pad: 1
    kernel_size: 3
    weight_filler {
      type: "xavier"
    }
    bias_filler {
      type: "constant"
      value: 0.0
    }
  }
}
layer {
  name: "relu1_1_1"
  type: "ReLU"
  bottom: "conv1_1_1"
  top: "conv1_1_1"
}

layer {
  name: "conv1_1_2"
  type: "Convolution"
  bottom: "data_2"
  top: "conv1_1_2"
  param {
    lr_mult: 1.0
    decay_mult: 1.0
  }
  param {
    lr_mult: 2.0
    decay_mult: 0.0
  }
  convolution_param {
    num_output: 32
    pad: 1
    kernel_size: 3
    weight_filler {
      type: "xavier"
    }
    bias_filler {
      type: "constant"
      value: 0.0
    }
  }
}
layer {
  name: "relu1_1_2"
  type: "ReLU"
  bottom: "conv1_1_2"
  top: "conv1_1_2"
}
layer {
  name: "conv1_1_3"
  type: "Convolution"
  bottom: "data_3"
  top: "conv1_1_3"
  param {
    lr_mult: 1.0
    decay_mult: 1.0
  }
  param {
    lr_mult: 2.0
    decay_mult: 0.0
  }
  convolution_param {
    num_output: 32
    pad: 1
    kernel_size: 3
    weight_filler {
      type: "xavier"
    }
    bias_filler {
      type: "constant"
      value: 0.0
    }
  }
}
layer {
  name: "relu1_1_3"
  type: "ReLU"
  bottom: "conv1_1_3"
  top: "conv1_1_3"
}

layer {
  name: "conv1_concat"
  type: "Concat"
  bottom: "conv1_1_1"
  bottom: "conv1_1_2"
  bottom: "conv1_1_3"
  top: "conv1_concat"
  concat_param {
    axis: 1
  }
}

layer {
  name: "conv1_2_total"
  type: "Convolution"
  bottom: "conv1_concat"
  top: "conv1_2_total"
  param {
    lr_mult: 1.0
    decay_mult: 1.0
  }
  param {
    lr_mult: 2.0
    decay_mult: 0.0
  }
  convolution_param {
    num_output: 64
    pad: 1
    kernel_size: 3
    weight_filler {
      type: "xavier"
    }
    bias_filler {
      type: "constant"
      value: 0.0
    }
  }
}
layer {
  name: "relu1_2"
  type: "ReLU"
  bottom: "conv1_2_total"
  top: "conv1_2_total"
}
layer {
  name: "pool1"
  type: "Pooling"
  bottom: "conv1_2_total"
  top: "pool1"
  pooling_param {
    pool: MAX
    kernel_size: 2
    stride: 2
  }
}
layer {
  name: "conv2_1"
  type: "Convolution"
  bottom: "pool1"
  top: "conv2_1"
  param {
    lr_mult: 1.0
    decay_mult: 1.0
  }
  param {
    lr_mult: 2.0
    decay_mult: 0.0
  }
  convolution_param {
    num_output: 128
    pad: 1
    kernel_size: 3
    weight_filler {
      type: "xavier"
    }
    bias_filler {
      type: "constant"
      value: 0.0
    }
  }
}
layer {
  name: "relu2_1"
  type: "ReLU"
  bottom: "conv2_1"
  top: "conv2_1"
}
layer {
  name: "conv2_2"
  type: "Convolution"
  bottom: "conv2_1"
  top: "conv2_2"
  param {
    lr_mult: 1.0
    decay_mult: 1.0
  }
  param {
    lr_mult: 2.0
    decay_mult: 0.0
  }
  convolution_param {
    num_output: 128
    pad: 1
    kernel_size: 3
    weight_filler {
      type: "xavier"
    }
    bias_filler {
      type: "constant"
      value: 0.0
    }
  }
}
layer {
  name: "relu2_2"
  type: "ReLU"
  bottom: "conv2_2"
  top: "conv2_2"
}
layer {
  name: "pool2"
  type: "Pooling"
  bottom: "conv2_2"
  top: "pool2"
  pooling_param {
    pool: MAX
    kernel_size: 2
    stride: 2
  }
}
layer {
  name: "conv3_1"
  type: "Convolution"
  bottom: "pool2"
  top: "conv3_1"
  param {
    lr_mult: 1.0
    decay_mult: 1.0
  }
  param {
    lr_mult: 2.0
    decay_mult: 0.0
  }
  convolution_param {
    num_output: 256
    pad: 1
    kernel_size: 3
    weight_filler {
      type: "xavier"
    }
    bias_filler {
      type: "constant"
      value: 0.0
    }
  }
}
layer {
  name: "relu3_1"
  type: "ReLU"
  bottom: "conv3_1"
  top: "conv3_1"
}
layer {
  name: "conv3_2"
  type: "Convolution"
  bottom: "conv3_1"
  top: "conv3_2"
  param {
    lr_mult: 1.0
    decay_mult: 1.0
  }
  param {
    lr_mult: 2.0
    decay_mult: 0.0
  }
  convolution_param {
    num_output: 256
    pad: 1
    kernel_size: 3
    weight_filler {
      type: "xavier"
    }
    bias_filler {
      type: "constant"
      value: 0.0
    }
  }
}
layer {
  name: "relu3_2"
  type: "ReLU"
  bottom: "conv3_2"
  top: "conv3_2"
}
layer {
  name: "conv3_3"
  type: "Convolution"
  bottom: "conv3_2"
  top: "conv3_3"
  param {
    lr_mult: 1.0
    decay_mult: 1.0
  }
  param {
    lr_mult: 2.0
    decay_mult: 0.0
  }
  convolution_param {
    num_output: 256
    pad: 1
    kernel_size: 3
    weight_filler {
      type: "xavier"
    }
    bias_filler {
      type: "constant"
      value: 0.0
    }
  }
}
layer {
  name: "relu3_3"
  type: "ReLU"
  bottom: "conv3_3"
  top: "conv3_3"
}
layer {
  name: "pool3"
  type: "Pooling"
  bottom: "conv3_3"
  top: "pool3"
  pooling_param {
    pool: MAX
    kernel_size: 2
    stride: 2
  }
}
layer {
  name: "conv4_1"
  type: "Convolution"
  bottom: "pool3"
  top: "conv4_1"
  param {
    lr_mult: 1.0
    decay_mult: 1.0
  }
  param {
    lr_mult: 2.0
    decay_mult: 0.0
  }
  convolution_param {
    num_output: 512
    pad: 1
    kernel_size: 3
    weight_filler {
      type: "xavier"
    }
    bias_filler {
      type: "constant"
      value: 0.0
    }
  }
}
layer {
  name: "relu4_1"
  type: "ReLU"
  bottom: "conv4_1"
  top: "conv4_1"
}
layer {
  name: "conv4_2"
  type: "Convolution"
  bottom: "conv4_1"
  top: "conv4_2"
  param {
    lr_mult: 1.0
    decay_mult: 1.0
  }
  param {
    lr_mult: 2.0
    decay_mult: 0.0
  }
  convolution_param {
    num_output: 512
    pad: 1
    kernel_size: 3
    weight_filler {
      type: "xavier"
    }
    bias_filler {
      type: "constant"
      value: 0.0
    }
  }
}
layer {
  name: "relu4_2"
  type: "ReLU"
  bottom: "conv4_2"
  top: "conv4_2"
}
layer {
  name: "conv4_3"
  type: "Convolution"
  bottom: "conv4_2"
  top: "conv4_3"
  param {
    lr_mult: 1.0
    decay_mult: 1.0
  }
  param {
    lr_mult: 2.0
    decay_mult: 0.0
  }
  convolution_param {
    num_output: 512
    pad: 1
    kernel_size: 3
    weight_filler {
      type: "xavier"
    }
    bias_filler {
      type: "constant"
      value: 0.0
    }
  }
}
layer {
  name: "relu4_3"
  type: "ReLU"
  bottom: "conv4_3"
  top: "conv4_3"
}
layer {
  name: "pool4"
  type: "Pooling"
  bottom: "conv4_3"
  top: "pool4"
  pooling_param {
    pool: MAX
    kernel_size: 2
    stride: 2
  }
}
layer {
  name: "conv5_1"
  type: "Convolution"
  bottom: "pool4"
  top: "conv5_1"
  param {
    lr_mult: 1.0
    decay_mult: 1.0
  }
  param {
    lr_mult: 2.0
    decay_mult: 0.0
  }
  convolution_param {
    num_output: 512
    pad: 1
    kernel_size: 3
    weight_filler {
      type: "xavier"
    }
    bias_filler {
      type: "constant"
      value: 0.0
    }
    dilation: 1
  }
}
layer {
  name: "relu5_1"
  type: "ReLU"
  bottom: "conv5_1"
  top: "conv5_1"
}
layer {
  name: "conv5_2"
  type: "Convolution"
  bottom: "conv5_1"
  top: "conv5_2"
  param {
    lr_mult: 1.0
    decay_mult: 1.0
  }
  param {
    lr_mult: 2.0
    decay_mult: 0.0
  }
  convolution_param {
    num_output: 512
    pad: 1
    kernel_size: 3
    weight_filler {
      type: "xavier"
    }
    bias_filler {
      type: "constant"
      value: 0.0
    }
    dilation: 1
  }
}
layer {
  name: "relu5_2"
  type: "ReLU"
  bottom: "conv5_2"
  top: "conv5_2"
}
layer {
  name: "conv5_3"
  type: "Convolution"
  bottom: "conv5_2"
  top: "conv5_3"
  param {
    lr_mult: 1.0
    decay_mult: 1.0
  }
  param {
    lr_mult: 2.0
    decay_mult: 0.0
  }
  convolution_param {
    num_output: 512
    pad: 1
    kernel_size: 3
    weight_filler {
      type: "xavier"
    }
    bias_filler {
      type: "constant"
      value: 0.0
    }
    dilation: 1
  }
}
layer {
  name: "relu5_3"
  type: "ReLU"
  bottom: "conv5_3"
  top: "conv5_3"
}
layer {
  name: "pool5"
  type: "Pooling"
  bottom: "conv5_3"
  top: "pool5"
  pooling_param {
    pool: MAX
    kernel_size: 3
    stride: 1
    pad: 1
  }
}
layer {
  name: "fc6"
  type: "Convolution"
  bottom: "pool5"
  top: "fc6"
  param {
    lr_mult: 1.0
    decay_mult: 1.0
  }
  param {
    lr_mult: 2.0
    decay_mult: 0.0
  }
  convolution_param {
    num_output: 1024
    pad: 6
    kernel_size: 3
    weight_filler {
      type: "xavier"
    }
    bias_filler {
      type: "constant"
      value: 0.0
    }
    dilation: 6
  }
}
layer {
  name: "relu6"
  type: "ReLU"
  bottom: "fc6"
  top: "fc6"
}
layer {
  name: "fc7"
  type: "Convolution"
  bottom: "fc6"
  top: "fc7"
  param {
    lr_mult: 1.0
    decay_mult: 1.0
  }
  param {
    lr_mult: 2.0
    decay_mult: 0.0
  }
  convolution_param {
    num_output: 1024
    kernel_size: 1
    weight_filler {
      type: "xavier"
    }
    bias_filler {
      type: "constant"
      value: 0.0
    }
  }
}
layer {
  name: "relu7"
  type: "ReLU"
  bottom: "fc7"
  top: "fc7"
}

layer {
    bottom: "fc7"
    top: "conv6_1_branch0_BasicConv0"
    name: "conv6_1_branch0_BasicConv0_conv"
    type: "Convolution"
    param
    {
        lr_mult: 1.0
        decay_mult: 1.0
    }
    convolution_param {
        num_output: 256
        pad: 0
        kernel_size: 1
        stride:1
        dilation:1
        bias_term:False
        weight_filler {
            type: "xavier"
        }
    }
}
layer {
    bottom: "conv6_1_branch0_BasicConv0"
    top: "conv6_1_branch0_BasicConv0"
    name: "conv6_1_branch0_BasicConv0_bn"
    type: "BatchNorm"
}
layer {
    bottom: "conv6_1_branch0_BasicConv0"
    top: "conv6_1_branch0_BasicConv0"
    name: "conv6_1_branch0_BasicConv0_relu"
    type: "ReLU"
}
layer {
    bottom: "conv6_1_branch0_BasicConv0"
    top: "conv6_1_branch0_BasicConv2"
    name: "conv6_1_branch0_BasicConv2_conv"
    type: "Convolution"
    param
    {
        lr_mult: 1.0
        decay_mult: 1.0
    }
    convolution_param {
        num_output: 256
        pad: 1
        kernel_size: 3
        stride:1
        dilation:1
        bias_term:False
        weight_filler {
            type: "xavier"
        }
    }
}
layer {
    bottom: "conv6_1_branch0_BasicConv2"
    top: "conv6_1_branch0_BasicConv2"
    name: "conv6_1_branch0_BasicConv2_bn"
    type: "BatchNorm"
}

layer {
    bottom: "fc7"
    top: "conv6_1_branch1_BasicConv0"
    name: "conv6_1_branch1_BasicConv0_conv"
    type: "Convolution"
    param
    {
        lr_mult: 1.0
        decay_mult: 1.0
    }
    convolution_param {
        num_output: 128
        pad: 0
        kernel_size: 1
        stride:1
        dilation:1
        bias_term:False
        weight_filler {
            type: "xavier"
        }
    }
}
layer {
    bottom: "conv6_1_branch1_BasicConv0"
    top: "conv6_1_branch1_BasicConv0"
    name: "conv6_1_branch1_BasicConv0_bn"
    type: "BatchNorm"
}
layer {
    bottom: "conv6_1_branch1_BasicConv0"
    top: "conv6_1_branch1_BasicConv0"
    name: "conv6_1_branch1_BasicConv0_relu"
    type: "ReLU"
}
layer {
    bottom: "conv6_1_branch1_BasicConv0"
    top: "conv6_1_branch1_BasicConv1"
    name: "conv6_1_branch1_BasicConv1_conv"
    type: "Convolution"
    param
    {
        lr_mult: 1.0
        decay_mult: 1.0
    }
    convolution_param {
        num_output: 256
        pad: 1
        kernel_size: 3
        stride:1
        dilation:1
        bias_term:False
        weight_filler {
            type: "xavier"
        }
    }
}
layer {
    bottom: "conv6_1_branch1_BasicConv1"
    top: "conv6_1_branch1_BasicConv1"
    name: "conv6_1_branch1_BasicConv1_bn"
    type: "BatchNorm"
}
layer {
    bottom: "conv6_1_branch1_BasicConv1"
    top: "conv6_1_branch1_BasicConv1"
    name: "conv6_1_branch1_BasicConv1_relu"
    type: "ReLU"
}
layer {
    bottom: "conv6_1_branch1_BasicConv1"
    top: "conv6_1_branch1_BasicConv2"
    name: "conv6_1_branch1_BasicConv2_conv"
    type: "Convolution"
    param
    {
        lr_mult: 1.0
        decay_mult: 1.0
    }
    convolution_param {
        num_output: 256
        pad: 3
        kernel_size: 3
        stride:1
        dilation:3
        bias_term:False
        weight_filler {
            type: "xavier"
        }
    }
}
layer {
    bottom: "conv6_1_branch1_BasicConv2"
    top: "conv6_1_branch1_BasicConv2"
    name: "conv6_1_branch1_BasicConv2_bn"
    type: "BatchNorm"
}

layer {
    bottom: "fc7"
    top: "conv6_1_branch2_BasicConv0"
    name: "conv6_1_branch2_BasicConv0_conv"
    type: "Convolution"
    param
    {
        lr_mult: 1.0
        decay_mult: 1.0
    }
    convolution_param {
        num_output: 128
        pad: 0
        kernel_size: 1
        stride:1
        dilation:1
        bias_term:False
        weight_filler {
            type: "xavier"
        }
    }
}
layer {
    bottom: "conv6_1_branch2_BasicConv0"
    top: "conv6_1_branch2_BasicConv0"
    name: "conv6_1_branch2_BasicConv0_bn"
    type: "BatchNorm"
}
layer {
    bottom: "conv6_1_branch2_BasicConv0"
    top: "conv6_1_branch2_BasicConv0"
    name: "conv6_1_branch2_BasicConv0_relu"
    type: "ReLU"
}
layer {
    bottom: "conv6_1_branch2_BasicConv0"
    top: "conv6_1_branch2_BasicConv1"
    name: "conv6_1_branch2_BasicConv1_conv"
    type: "Convolution"
    param
    {
        lr_mult: 1.0
        decay_mult: 1.0
    }
    convolution_param {
        num_output: 192
        pad: 1
        kernel_size: 3
        stride:1
        dilation:1
        bias_term:False
        weight_filler {
            type: "xavier"
        }
    }
}
layer {
    bottom: "conv6_1_branch2_BasicConv1"
    top: "conv6_1_branch2_BasicConv1"
    name: "conv6_1_branch2_BasicConv1_bn"
    type: "BatchNorm"
}
layer {
    bottom: "conv6_1_branch2_BasicConv1"
    top: "conv6_1_branch2_BasicConv1"
    name: "conv6_1_branch2_BasicConv1_relu"
    type: "ReLU"
}
layer {
    bottom: "conv6_1_branch2_BasicConv1"
    top: "conv6_1_branch2_BasicConv2"
    name: "conv6_1_branch2_BasicConv2_conv"
    type: "Convolution"
    param
    {
        lr_mult: 1.0
        decay_mult: 1.0
    }
    convolution_param {
        num_output: 256
        pad: 1
        kernel_size: 3
        stride:1
        dilation:1
        bias_term:False
        weight_filler {
            type: "xavier"
        }
    }
}
layer {
    bottom: "conv6_1_branch2_BasicConv2"
    top: "conv6_1_branch2_BasicConv2"
    name: "conv6_1_branch2_BasicConv2_bn"
    type: "BatchNorm"
}
layer {
    bottom: "conv6_1_branch2_BasicConv2"
    top: "conv6_1_branch2_BasicConv2"
    name: "conv6_1_branch2_BasicConv2_relu"
    type: "ReLU"
}
layer {
    bottom: "conv6_1_branch2_BasicConv2"
    top: "conv6_1_branch2_BasicConv3"
    name: "conv6_1_branch2_BasicConv3_conv"
    type: "Convolution"
    param
    {
        lr_mult: 1.0
        decay_mult: 1.0
    }
    convolution_param {
        num_output: 256
        pad: 5
        kernel_size: 3
        stride:1
        dilation:5
        bias_term:False
        weight_filler {
            type: "xavier"
        }
    }
}
layer {
    bottom: "conv6_1_branch2_BasicConv3"
    top: "conv6_1_branch2_BasicConv3"
    name: "conv6_1_branch2_BasicConv3_bn"
    type: "BatchNorm"
}

layer {
    bottom: "fc7"
    top: "conv6_1_branch3_BasicConv0"
    name: "conv6_1_branch3_BasicConv0_conv"
    type: "Convolution"
    param
    {
        lr_mult: 1.0
        decay_mult: 1.0
    }
    convolution_param {
        num_output: 128
        pad: 0
        kernel_size: 1
        stride:1
        dilation:1
        bias_term:False
        weight_filler {
            type: "xavier"
        }
    }
}
layer {
    bottom: "conv6_1_branch3_BasicConv0"
    top: "conv6_1_branch3_BasicConv0"
    name: "conv6_1_branch3_BasicConv0_bn"
    type: "BatchNorm"
}
layer {
    bottom: "conv6_1_branch3_BasicConv0"
    top: "conv6_1_branch3_BasicConv0"
    name: "conv6_1_branch3_BasicConv0_relu"
    type: "ReLU"
}
layer {
    bottom: "conv6_1_branch3_BasicConv0"
    top: "conv6_1_branch3_BasicConv1"
    name: "conv6_1_branch3_BasicConv1_conv"
    type: "Convolution"
    param
    {
        lr_mult: 1.0
        decay_mult: 1.0
    }
    convolution_param {
        num_output: 192
        pad_h: 0  pad_w: 3
        kernel_h: 1  kernel_w: 7
        stride:1
        dilation:1
        bias_term:False
        weight_filler {
            type: "xavier"
        }
    }
}
layer {
    bottom: "conv6_1_branch3_BasicConv1"
    top: "conv6_1_branch3_BasicConv1"
    name: "conv6_1_branch3_BasicConv1_bn"
    type: "BatchNorm"
}
layer {
    bottom: "conv6_1_branch3_BasicConv1"
    top: "conv6_1_branch3_BasicConv1"
    name: "conv6_1_branch3_BasicConv1_relu"
    type: "ReLU"
}
layer {
    bottom: "conv6_1_branch3_BasicConv1"
    top: "conv6_1_branch3_BasicConv2"
    name: "conv6_1_branch3_BasicConv2_conv"
    type: "Convolution"
    param
    {
        lr_mult: 1.0
        decay_mult: 1.0
    }
    convolution_param {
        num_output: 256
        pad_h: 3  pad_w: 0
        kernel_h: 7  kernel_w: 1
        stride:1
        dilation:1
        bias_term:False
        weight_filler {
            type: "xavier"
        }
    }
}
layer {
    bottom: "conv6_1_branch3_BasicConv2"
    top: "conv6_1_branch3_BasicConv2"
    name: "conv6_1_branch3_BasicConv2_bn"
    type: "BatchNorm"
}
layer {
    bottom: "conv6_1_branch3_BasicConv2"
    top: "conv6_1_branch3_BasicConv2"
    name: "conv6_1_branch3_BasicConv2_relu"
    type: "ReLU"
}
layer {
    bottom: "conv6_1_branch3_BasicConv2"
    top: "conv6_1_branch3_BasicConv3"
    name: "conv6_1_branch3_BasicConv3_conv"
    type: "Convolution"
    param
    {
        lr_mult: 1.0
        decay_mult: 1.0
    }
    convolution_param {
        num_output: 256
        pad: 7
        kernel_size: 3
        stride:1
        dilation:7
        bias_term:False
        weight_filler {
            type: "xavier"
        }
    }
}
layer {
    bottom: "conv6_1_branch3_BasicConv3"
    top: "conv6_1_branch3_BasicConv3"
    name: "conv6_1_branch3_BasicConv3_bn"
    type: "BatchNorm"
}

layer{
    name: "conv6_1_Concat"
    type: "Concat"
    bottom: "conv6_1_branch0_BasicConv2"  bottom: "conv6_1_branch1_BasicConv2"  bottom: "conv6_1_branch2_BasicConv3"  bottom: "conv6_1_branch3_BasicConv3"  
    top: "conv6_1_Concat"
    concat_param{
        axis: 1    
    }
}
layer {
    bottom: "conv6_1_Concat"
    top: "conv6_1_ConvLinear"
    name: "conv6_1_ConvLinear_conv"
    type: "Convolution"
    param
    {
        lr_mult: 1.0
        decay_mult: 1.0
    }
    convolution_param {
        num_output: 1024
        pad: 0
        kernel_size: 1
        stride:1
        dilation:1
        bias_term:False
        weight_filler {
            type: "xavier"
        }
    }
}
layer {
    bottom: "conv6_1_ConvLinear"
    top: "conv6_1_ConvLinear"
    name: "conv6_1_ConvLinear_bn"
    type: "BatchNorm"
}
layer {
    bottom: "fc7"
    top: "conv6_1_HightWay_BasicConv"
    name: "conv6_1_HightWay_BasicConv_conv"
    type: "Convolution"
    param
    {
        lr_mult: 1.0
        decay_mult: 1.0
    }
    convolution_param {
        num_output: 1024
        pad: 0
        kernel_size: 1
        stride:1
        dilation:1
        bias_term:False
        weight_filler {
            type: "xavier"
        }
    }
}
layer {
    bottom: "conv6_1_HightWay_BasicConv"
    top: "conv6_1_HightWay_BasicConv"
    name: "conv6_1_HightWay_BasicConv_bn"
    type: "BatchNorm"
}
layer{
    name: "conv6_1"
    type: "Eltwise"
    bottom: "conv6_1_HightWay_BasicConv"  bottom: "conv6_1_ConvLinear"  
    top: "conv6_1"
    eltwise_param {
        operation: SUM
        coeff: 1
        coeff: 1
    }
}layer {
    bottom: "conv6_1"
    top: "conv6_1"
    name: "conv6_1_Relu"
    type: "ReLU"
}
layer {
    bottom: "conv6_1"
    top: "conv6_2_branch0_BasicConv0"
    name: "conv6_2_branch0_BasicConv0_conv"
    type: "Convolution"
    param
    {
        lr_mult: 1.0
        decay_mult: 1.0
    }
    convolution_param {
        num_output: 256
        pad: 0
        kernel_size: 1
        stride:2
        dilation:1
        bias_term:False
        weight_filler {
            type: "xavier"
        }
    }
}
layer {
    bottom: "conv6_2_branch0_BasicConv0"
    top: "conv6_2_branch0_BasicConv0"
    name: "conv6_2_branch0_BasicConv0_bn"
    type: "BatchNorm"
}
layer {
    bottom: "conv6_2_branch0_BasicConv0"
    top: "conv6_2_branch0_BasicConv0"
    name: "conv6_2_branch0_BasicConv0_relu"
    type: "ReLU"
}
layer {
    bottom: "conv6_2_branch0_BasicConv0"
    top: "conv6_2_branch0_BasicConv2"
    name: "conv6_2_branch0_BasicConv2_conv"
    type: "Convolution"
    param
    {
        lr_mult: 1.0
        decay_mult: 1.0
    }
    convolution_param {
        num_output: 256
        pad: 1
        kernel_size: 3
        stride:1
        dilation:1
        bias_term:False
        weight_filler {
            type: "xavier"
        }
    }
}
layer {
    bottom: "conv6_2_branch0_BasicConv2"
    top: "conv6_2_branch0_BasicConv2"
    name: "conv6_2_branch0_BasicConv2_bn"
    type: "BatchNorm"
}

layer {
    bottom: "conv6_1"
    top: "conv6_2_branch1_BasicConv0"
    name: "conv6_2_branch1_BasicConv0_conv"
    type: "Convolution"
    param
    {
        lr_mult: 1.0
        decay_mult: 1.0
    }
    convolution_param {
        num_output: 128
        pad: 0
        kernel_size: 1
        stride:1
        dilation:1
        bias_term:False
        weight_filler {
            type: "xavier"
        }
    }
}
layer {
    bottom: "conv6_2_branch1_BasicConv0"
    top: "conv6_2_branch1_BasicConv0"
    name: "conv6_2_branch1_BasicConv0_bn"
    type: "BatchNorm"
}
layer {
    bottom: "conv6_2_branch1_BasicConv0"
    top: "conv6_2_branch1_BasicConv0"
    name: "conv6_2_branch1_BasicConv0_relu"
    type: "ReLU"
}
layer {
    bottom: "conv6_2_branch1_BasicConv0"
    top: "conv6_2_branch1_BasicConv1"
    name: "conv6_2_branch1_BasicConv1_conv"
    type: "Convolution"
    param
    {
        lr_mult: 1.0
        decay_mult: 1.0
    }
    convolution_param {
        num_output: 256
        pad: 1
        kernel_size: 3
        stride:2
        dilation:1
        bias_term:False
        weight_filler {
            type: "xavier"
        }
    }
}
layer {
    bottom: "conv6_2_branch1_BasicConv1"
    top: "conv6_2_branch1_BasicConv1"
    name: "conv6_2_branch1_BasicConv1_bn"
    type: "BatchNorm"
}
layer {
    bottom: "conv6_2_branch1_BasicConv1"
    top: "conv6_2_branch1_BasicConv1"
    name: "conv6_2_branch1_BasicConv1_relu"
    type: "ReLU"
}
layer {
    bottom: "conv6_2_branch1_BasicConv1"
    top: "conv6_2_branch1_BasicConv2"
    name: "conv6_2_branch1_BasicConv2_conv"
    type: "Convolution"
    param
    {
        lr_mult: 1.0
        decay_mult: 1.0
    }
    convolution_param {
        num_output: 256
        pad: 3
        kernel_size: 3
        stride:1
        dilation:3
        bias_term:False
        weight_filler {
            type: "xavier"
        }
    }
}
layer {
    bottom: "conv6_2_branch1_BasicConv2"
    top: "conv6_2_branch1_BasicConv2"
    name: "conv6_2_branch1_BasicConv2_bn"
    type: "BatchNorm"
}

layer {
    bottom: "conv6_1"
    top: "conv6_2_branch2_BasicConv0"
    name: "conv6_2_branch2_BasicConv0_conv"
    type: "Convolution"
    param
    {
        lr_mult: 1.0
        decay_mult: 1.0
    }
    convolution_param {
        num_output: 128
        pad: 0
        kernel_size: 1
        stride:1
        dilation:1
        bias_term:False
        weight_filler {
            type: "xavier"
        }
    }
}
layer {
    bottom: "conv6_2_branch2_BasicConv0"
    top: "conv6_2_branch2_BasicConv0"
    name: "conv6_2_branch2_BasicConv0_bn"
    type: "BatchNorm"
}
layer {
    bottom: "conv6_2_branch2_BasicConv0"
    top: "conv6_2_branch2_BasicConv0"
    name: "conv6_2_branch2_BasicConv0_relu"
    type: "ReLU"
}
layer {
    bottom: "conv6_2_branch2_BasicConv0"
    top: "conv6_2_branch2_BasicConv1"
    name: "conv6_2_branch2_BasicConv1_conv"
    type: "Convolution"
    param
    {
        lr_mult: 1.0
        decay_mult: 1.0
    }
    convolution_param {
        num_output: 192
        pad: 1
        kernel_size: 3
        stride:1
        dilation:1
        bias_term:False
        weight_filler {
            type: "xavier"
        }
    }
}
layer {
    bottom: "conv6_2_branch2_BasicConv1"
    top: "conv6_2_branch2_BasicConv1"
    name: "conv6_2_branch2_BasicConv1_bn"
    type: "BatchNorm"
}
layer {
    bottom: "conv6_2_branch2_BasicConv1"
    top: "conv6_2_branch2_BasicConv1"
    name: "conv6_2_branch2_BasicConv1_relu"
    type: "ReLU"
}
layer {
    bottom: "conv6_2_branch2_BasicConv1"
    top: "conv6_2_branch2_BasicConv2"
    name: "conv6_2_branch2_BasicConv2_conv"
    type: "Convolution"
    param
    {
        lr_mult: 1.0
        decay_mult: 1.0
    }
    convolution_param {
        num_output: 256
        pad: 1
        kernel_size: 3
        stride:2
        dilation:1
        bias_term:False
        weight_filler {
            type: "xavier"
        }
    }
}
layer {
    bottom: "conv6_2_branch2_BasicConv2"
    top: "conv6_2_branch2_BasicConv2"
    name: "conv6_2_branch2_BasicConv2_bn"
    type: "BatchNorm"
}
layer {
    bottom: "conv6_2_branch2_BasicConv2"
    top: "conv6_2_branch2_BasicConv2"
    name: "conv6_2_branch2_BasicConv2_relu"
    type: "ReLU"
}
layer {
    bottom: "conv6_2_branch2_BasicConv2"
    top: "conv6_2_branch2_BasicConv3"
    name: "conv6_2_branch2_BasicConv3_conv"
    type: "Convolution"
    param
    {
        lr_mult: 1.0
        decay_mult: 1.0
    }
    convolution_param {
        num_output: 256
        pad: 5
        kernel_size: 3
        stride:1
        dilation:5
        bias_term:False
        weight_filler {
            type: "xavier"
        }
    }
}
layer {
    bottom: "conv6_2_branch2_BasicConv3"
    top: "conv6_2_branch2_BasicConv3"
    name: "conv6_2_branch2_BasicConv3_bn"
    type: "BatchNorm"
}

layer {
    bottom: "conv6_1"
    top: "conv6_2_branch3_BasicConv0"
    name: "conv6_2_branch3_BasicConv0_conv"
    type: "Convolution"
    param
    {
        lr_mult: 1.0
        decay_mult: 1.0
    }
    convolution_param {
        num_output: 128
        pad: 0
        kernel_size: 1
        stride:1
        dilation:1
        bias_term:False
        weight_filler {
            type: "xavier"
        }
    }
}
layer {
    bottom: "conv6_2_branch3_BasicConv0"
    top: "conv6_2_branch3_BasicConv0"
    name: "conv6_2_branch3_BasicConv0_bn"
    type: "BatchNorm"
}
layer {
    bottom: "conv6_2_branch3_BasicConv0"
    top: "conv6_2_branch3_BasicConv0"
    name: "conv6_2_branch3_BasicConv0_relu"
    type: "ReLU"
}
layer {
    bottom: "conv6_2_branch3_BasicConv0"
    top: "conv6_2_branch3_BasicConv1"
    name: "conv6_2_branch3_BasicConv1_conv"
    type: "Convolution"
    param
    {
        lr_mult: 1.0
        decay_mult: 1.0
    }
    convolution_param {
        num_output: 192
        pad_h: 0  pad_w: 3
        kernel_h: 1  kernel_w: 7
        stride:1
        dilation:1
        bias_term:False
        weight_filler {
            type: "xavier"
        }
    }
}
layer {
    bottom: "conv6_2_branch3_BasicConv1"
    top: "conv6_2_branch3_BasicConv1"
    name: "conv6_2_branch3_BasicConv1_bn"
    type: "BatchNorm"
}
layer {
    bottom: "conv6_2_branch3_BasicConv1"
    top: "conv6_2_branch3_BasicConv1"
    name: "conv6_2_branch3_BasicConv1_relu"
    type: "ReLU"
}
layer {
    bottom: "conv6_2_branch3_BasicConv1"
    top: "conv6_2_branch3_BasicConv2"
    name: "conv6_2_branch3_BasicConv2_conv"
    type: "Convolution"
    param
    {
        lr_mult: 1.0
        decay_mult: 1.0
    }
    convolution_param {
        num_output: 256
        pad_h: 3  pad_w: 0
        kernel_h: 7  kernel_w: 1
        stride:2
        dilation:1
        bias_term:False
        weight_filler {
            type: "xavier"
        }
    }
}
layer {
    bottom: "conv6_2_branch3_BasicConv2"
    top: "conv6_2_branch3_BasicConv2"
    name: "conv6_2_branch3_BasicConv2_bn"
    type: "BatchNorm"
}
layer {
    bottom: "conv6_2_branch3_BasicConv2"
    top: "conv6_2_branch3_BasicConv2"
    name: "conv6_2_branch3_BasicConv2_relu"
    type: "ReLU"
}
layer {
    bottom: "conv6_2_branch3_BasicConv2"
    top: "conv6_2_branch3_BasicConv3"
    name: "conv6_2_branch3_BasicConv3_conv"
    type: "Convolution"
    param
    {
        lr_mult: 1.0
        decay_mult: 1.0
    }
    convolution_param {
        num_output: 256
        pad: 7
        kernel_size: 3
        stride:1
        dilation:7
        bias_term:False
        weight_filler {
            type: "xavier"
        }
    }
}
layer {
    bottom: "conv6_2_branch3_BasicConv3"
    top: "conv6_2_branch3_BasicConv3"
    name: "conv6_2_branch3_BasicConv3_bn"
    type: "BatchNorm"
}

layer{
    name: "conv6_2_Concat"
    type: "Concat"
    bottom: "conv6_2_branch0_BasicConv2"  bottom: "conv6_2_branch1_BasicConv2"  bottom: "conv6_2_branch2_BasicConv3"  bottom: "conv6_2_branch3_BasicConv3"  
    top: "conv6_2_Concat"
    concat_param{
        axis: 1    
    }
}
layer {
    bottom: "conv6_2_Concat"
    top: "conv6_2_ConvLinear"
    name: "conv6_2_ConvLinear_conv"
    type: "Convolution"
    param
    {
        lr_mult: 1.0
        decay_mult: 1.0
    }
    convolution_param {
        num_output: 512
        pad: 0
        kernel_size: 1
        stride:1
        dilation:1
        bias_term:False
        weight_filler {
            type: "xavier"
        }
    }
}
layer {
    bottom: "conv6_2_ConvLinear"
    top: "conv6_2_ConvLinear"
    name: "conv6_2_ConvLinear_bn"
    type: "BatchNorm"
}
layer {
    bottom: "conv6_1"
    top: "conv6_2_HightWay_BasicConv"
    name: "conv6_2_HightWay_BasicConv_conv"
    type: "Convolution"
    param
    {
        lr_mult: 1.0
        decay_mult: 1.0
    }
    convolution_param {
        num_output: 512
        pad: 0
        kernel_size: 1
        stride:2
        dilation:1
        bias_term:False
        weight_filler {
            type: "xavier"
        }
    }
}
layer {
    bottom: "conv6_2_HightWay_BasicConv"
    top: "conv6_2_HightWay_BasicConv"
    name: "conv6_2_HightWay_BasicConv_bn"
    type: "BatchNorm"
}
layer{
    name: "conv6_2"
    type: "Eltwise"
    bottom: "conv6_2_HightWay_BasicConv"  bottom: "conv6_2_ConvLinear"  
    top: "conv6_2"
    eltwise_param {
        operation: SUM
        coeff: 1
        coeff: 1
    }
}layer {
    bottom: "conv6_2"
    top: "conv6_2"
    name: "conv6_2_Relu"
    type: "ReLU"
}
layer {
    bottom: "conv6_2"
    top: "conv7_2_branch0_BasicConv0"
    name: "conv7_2_branch0_BasicConv0_conv"
    type: "Convolution"
    param
    {
        lr_mult: 1.0
        decay_mult: 1.0
    }
    convolution_param {
        num_output: 128
        pad: 0
        kernel_size: 1
        stride:2
        dilation:1
        bias_term:False
        weight_filler {
            type: "xavier"
        }
    }
}
layer {
    bottom: "conv7_2_branch0_BasicConv0"
    top: "conv7_2_branch0_BasicConv0"
    name: "conv7_2_branch0_BasicConv0_bn"
    type: "BatchNorm"
}
layer {
    bottom: "conv7_2_branch0_BasicConv0"
    top: "conv7_2_branch0_BasicConv0"
    name: "conv7_2_branch0_BasicConv0_relu"
    type: "ReLU"
}
layer {
    bottom: "conv7_2_branch0_BasicConv0"
    top: "conv7_2_branch0_BasicConv2"
    name: "conv7_2_branch0_BasicConv2_conv"
    type: "Convolution"
    param
    {
        lr_mult: 1.0
        decay_mult: 1.0
    }
    convolution_param {
        num_output: 128
        pad: 1
        kernel_size: 3
        stride:1
        dilation:1
        bias_term:False
        weight_filler {
            type: "xavier"
        }
    }
}
layer {
    bottom: "conv7_2_branch0_BasicConv2"
    top: "conv7_2_branch0_BasicConv2"
    name: "conv7_2_branch0_BasicConv2_bn"
    type: "BatchNorm"
}

layer {
    bottom: "conv6_2"
    top: "conv7_2_branch1_BasicConv0"
    name: "conv7_2_branch1_BasicConv0_conv"
    type: "Convolution"
    param
    {
        lr_mult: 1.0
        decay_mult: 1.0
    }
    convolution_param {
        num_output: 64
        pad: 0
        kernel_size: 1
        stride:1
        dilation:1
        bias_term:False
        weight_filler {
            type: "xavier"
        }
    }
}
layer {
    bottom: "conv7_2_branch1_BasicConv0"
    top: "conv7_2_branch1_BasicConv0"
    name: "conv7_2_branch1_BasicConv0_bn"
    type: "BatchNorm"
}
layer {
    bottom: "conv7_2_branch1_BasicConv0"
    top: "conv7_2_branch1_BasicConv0"
    name: "conv7_2_branch1_BasicConv0_relu"
    type: "ReLU"
}
layer {
    bottom: "conv7_2_branch1_BasicConv0"
    top: "conv7_2_branch1_BasicConv1"
    name: "conv7_2_branch1_BasicConv1_conv"
    type: "Convolution"
    param
    {
        lr_mult: 1.0
        decay_mult: 1.0
    }
    convolution_param {
        num_output: 128
        pad: 1
        kernel_size: 3
        stride:2
        dilation:1
        bias_term:False
        weight_filler {
            type: "xavier"
        }
    }
}
layer {
    bottom: "conv7_2_branch1_BasicConv1"
    top: "conv7_2_branch1_BasicConv1"
    name: "conv7_2_branch1_BasicConv1_bn"
    type: "BatchNorm"
}
layer {
    bottom: "conv7_2_branch1_BasicConv1"
    top: "conv7_2_branch1_BasicConv1"
    name: "conv7_2_branch1_BasicConv1_relu"
    type: "ReLU"
}
layer {
    bottom: "conv7_2_branch1_BasicConv1"
    top: "conv7_2_branch1_BasicConv2"
    name: "conv7_2_branch1_BasicConv2_conv"
    type: "Convolution"
    param
    {
        lr_mult: 1.0
        decay_mult: 1.0
    }
    convolution_param {
        num_output: 128
        pad: 3
        kernel_size: 3
        stride:1
        dilation:3
        bias_term:False
        weight_filler {
            type: "xavier"
        }
    }
}
layer {
    bottom: "conv7_2_branch1_BasicConv2"
    top: "conv7_2_branch1_BasicConv2"
    name: "conv7_2_branch1_BasicConv2_bn"
    type: "BatchNorm"
}

layer {
    bottom: "conv6_2"
    top: "conv7_2_branch2_BasicConv0"
    name: "conv7_2_branch2_BasicConv0_conv"
    type: "Convolution"
    param
    {
        lr_mult: 1.0
        decay_mult: 1.0
    }
    convolution_param {
        num_output: 64
        pad: 0
        kernel_size: 1
        stride:1
        dilation:1
        bias_term:False
        weight_filler {
            type: "xavier"
        }
    }
}
layer {
    bottom: "conv7_2_branch2_BasicConv0"
    top: "conv7_2_branch2_BasicConv0"
    name: "conv7_2_branch2_BasicConv0_bn"
    type: "BatchNorm"
}
layer {
    bottom: "conv7_2_branch2_BasicConv0"
    top: "conv7_2_branch2_BasicConv0"
    name: "conv7_2_branch2_BasicConv0_relu"
    type: "ReLU"
}
layer {
    bottom: "conv7_2_branch2_BasicConv0"
    top: "conv7_2_branch2_BasicConv1"
    name: "conv7_2_branch2_BasicConv1_conv"
    type: "Convolution"
    param
    {
        lr_mult: 1.0
        decay_mult: 1.0
    }
    convolution_param {
        num_output: 96
        pad: 1
        kernel_size: 3
        stride:1
        dilation:1
        bias_term:False
        weight_filler {
            type: "xavier"
        }
    }
}
layer {
    bottom: "conv7_2_branch2_BasicConv1"
    top: "conv7_2_branch2_BasicConv1"
    name: "conv7_2_branch2_BasicConv1_bn"
    type: "BatchNorm"
}
layer {
    bottom: "conv7_2_branch2_BasicConv1"
    top: "conv7_2_branch2_BasicConv1"
    name: "conv7_2_branch2_BasicConv1_relu"
    type: "ReLU"
}
layer {
    bottom: "conv7_2_branch2_BasicConv1"
    top: "conv7_2_branch2_BasicConv2"
    name: "conv7_2_branch2_BasicConv2_conv"
    type: "Convolution"
    param
    {
        lr_mult: 1.0
        decay_mult: 1.0
    }
    convolution_param {
        num_output: 128
        pad: 1
        kernel_size: 3
        stride:2
        dilation:1
        bias_term:False
        weight_filler {
            type: "xavier"
        }
    }
}
layer {
    bottom: "conv7_2_branch2_BasicConv2"
    top: "conv7_2_branch2_BasicConv2"
    name: "conv7_2_branch2_BasicConv2_bn"
    type: "BatchNorm"
}
layer {
    bottom: "conv7_2_branch2_BasicConv2"
    top: "conv7_2_branch2_BasicConv2"
    name: "conv7_2_branch2_BasicConv2_relu"
    type: "ReLU"
}
layer {
    bottom: "conv7_2_branch2_BasicConv2"
    top: "conv7_2_branch2_BasicConv3"
    name: "conv7_2_branch2_BasicConv3_conv"
    type: "Convolution"
    param
    {
        lr_mult: 1.0
        decay_mult: 1.0
    }
    convolution_param {
        num_output: 128
        pad: 5
        kernel_size: 3
        stride:1
        dilation:5
        bias_term:False
        weight_filler {
            type: "xavier"
        }
    }
}
layer {
    bottom: "conv7_2_branch2_BasicConv3"
    top: "conv7_2_branch2_BasicConv3"
    name: "conv7_2_branch2_BasicConv3_bn"
    type: "BatchNorm"
}

layer {
    bottom: "conv6_2"
    top: "conv7_2_branch3_BasicConv0"
    name: "conv7_2_branch3_BasicConv0_conv"
    type: "Convolution"
    param
    {
        lr_mult: 1.0
        decay_mult: 1.0
    }
    convolution_param {
        num_output: 64
        pad: 0
        kernel_size: 1
        stride:1
        dilation:1
        bias_term:False
        weight_filler {
            type: "xavier"
        }
    }
}
layer {
    bottom: "conv7_2_branch3_BasicConv0"
    top: "conv7_2_branch3_BasicConv0"
    name: "conv7_2_branch3_BasicConv0_bn"
    type: "BatchNorm"
}
layer {
    bottom: "conv7_2_branch3_BasicConv0"
    top: "conv7_2_branch3_BasicConv0"
    name: "conv7_2_branch3_BasicConv0_relu"
    type: "ReLU"
}
layer {
    bottom: "conv7_2_branch3_BasicConv0"
    top: "conv7_2_branch3_BasicConv1"
    name: "conv7_2_branch3_BasicConv1_conv"
    type: "Convolution"
    param
    {
        lr_mult: 1.0
        decay_mult: 1.0
    }
    convolution_param {
        num_output: 96
        pad_h: 0  pad_w: 3
        kernel_h: 1  kernel_w: 7
        stride:1
        dilation:1
        bias_term:False
        weight_filler {
            type: "xavier"
        }
    }
}
layer {
    bottom: "conv7_2_branch3_BasicConv1"
    top: "conv7_2_branch3_BasicConv1"
    name: "conv7_2_branch3_BasicConv1_bn"
    type: "BatchNorm"
}
layer {
    bottom: "conv7_2_branch3_BasicConv1"
    top: "conv7_2_branch3_BasicConv1"
    name: "conv7_2_branch3_BasicConv1_relu"
    type: "ReLU"
}
layer {
    bottom: "conv7_2_branch3_BasicConv1"
    top: "conv7_2_branch3_BasicConv2"
    name: "conv7_2_branch3_BasicConv2_conv"
    type: "Convolution"
    param
    {
        lr_mult: 1.0
        decay_mult: 1.0
    }
    convolution_param {
        num_output: 128
        pad_h: 3  pad_w: 0
        kernel_h: 7  kernel_w: 1
        stride:2
        dilation:1
        bias_term:False
        weight_filler {
            type: "xavier"
        }
    }
}
layer {
    bottom: "conv7_2_branch3_BasicConv2"
    top: "conv7_2_branch3_BasicConv2"
    name: "conv7_2_branch3_BasicConv2_bn"
    type: "BatchNorm"
}
layer {
    bottom: "conv7_2_branch3_BasicConv2"
    top: "conv7_2_branch3_BasicConv2"
    name: "conv7_2_branch3_BasicConv2_relu"
    type: "ReLU"
}
layer {
    bottom: "conv7_2_branch3_BasicConv2"
    top: "conv7_2_branch3_BasicConv3"
    name: "conv7_2_branch3_BasicConv3_conv"
    type: "Convolution"
    param
    {
        lr_mult: 1.0
        decay_mult: 1.0
    }
    convolution_param {
        num_output: 128
        pad: 7
        kernel_size: 3
        stride:1
        dilation:7
        bias_term:False
        weight_filler {
            type: "xavier"
        }
    }
}
layer {
    bottom: "conv7_2_branch3_BasicConv3"
    top: "conv7_2_branch3_BasicConv3"
    name: "conv7_2_branch3_BasicConv3_bn"
    type: "BatchNorm"
}

layer{
    name: "conv7_2_Concat"
    type: "Concat"
    bottom: "conv7_2_branch0_BasicConv2"  bottom: "conv7_2_branch1_BasicConv2"  bottom: "conv7_2_branch2_BasicConv3"  bottom: "conv7_2_branch3_BasicConv3"  
    top: "conv7_2_Concat"
    concat_param{
        axis: 1    
    }
}
layer {
    bottom: "conv7_2_Concat"
    top: "conv7_2_ConvLinear"
    name: "conv7_2_ConvLinear_conv"
    type: "Convolution"
    param
    {
        lr_mult: 1.0
        decay_mult: 1.0
    }
    convolution_param {
        num_output: 256
        pad: 0
        kernel_size: 1
        stride:1
        dilation:1
        bias_term:False
        weight_filler {
            type: "xavier"
        }
    }
}
layer {
    bottom: "conv7_2_ConvLinear"
    top: "conv7_2_ConvLinear"
    name: "conv7_2_ConvLinear_bn"
    type: "BatchNorm"
}
layer {
    bottom: "conv6_2"
    top: "conv7_2_HightWay_BasicConv"
    name: "conv7_2_HightWay_BasicConv_conv"
    type: "Convolution"
    param
    {
        lr_mult: 1.0
        decay_mult: 1.0
    }
    convolution_param {
        num_output: 256
        pad: 0
        kernel_size: 1
        stride:2
        dilation:1
        bias_term:False
        weight_filler {
            type: "xavier"
        }
    }
}
layer {
    bottom: "conv7_2_HightWay_BasicConv"
    top: "conv7_2_HightWay_BasicConv"
    name: "conv7_2_HightWay_BasicConv_bn"
    type: "BatchNorm"
}
layer{
    name: "conv7_2"
    type: "Eltwise"
    bottom: "conv7_2_HightWay_BasicConv"  bottom: "conv7_2_ConvLinear"  
    top: "conv7_2"
    eltwise_param {
        operation: SUM
        coeff: 1
        coeff: 1
    }
}layer {
    bottom: "conv7_2"
    top: "conv7_2"
    name: "conv7_2_Relu"
    type: "ReLU"
}



layer {
    bottom: "conv7_2"
    top: "conv8_1"
    name: "conv8_1_conv"
    type: "Convolution"
    param
    {
        lr_mult: 1.0
        decay_mult: 1.0
    }
    convolution_param {
        num_output: 128
        pad: 0
        kernel_size: 1
        stride:1
        dilation:1
        bias_term:False
        weight_filler {
            type: "xavier"
        }
    }
}
layer {
    bottom: "conv8_1"
    top: "conv8_1"
    name: "conv8_1_bn"
    type: "BatchNorm"
}
layer {
    bottom: "conv8_1"
    top: "conv8_1"
    name: "conv8_1_relu"
    type: "ReLU"
}
layer {
    bottom: "conv8_1"
    top: "conv8_2"
    name: "conv8_2_conv"
    type: "Convolution"
    param
    {
        lr_mult: 1.0
        decay_mult: 1.0
    }
    convolution_param {
        num_output: 256
        pad: 0
        kernel_size: 3
        stride:1
        dilation:1
        bias_term:False
        weight_filler {
            type: "xavier"
        }
    }
}
layer {
    bottom: "conv8_2"
    top: "conv8_2"
    name: "conv8_2_bn"
    type: "BatchNorm"
}
layer {
    bottom: "conv8_2"
    top: "conv8_2"
    name: "conv8_2_relu"
    type: "ReLU"
}
layer {
    bottom: "conv8_2"
    top: "conv9_1"
    name: "conv9_1_conv"
    type: "Convolution"
    param
    {
        lr_mult: 1.0
        decay_mult: 1.0
    }
    convolution_param {
        num_output: 128
        pad: 0
        kernel_size: 1
        stride:1
        dilation:1
        bias_term:False
        weight_filler {
            type: "xavier"
        }
    }
}
layer {
    bottom: "conv9_1"
    top: "conv9_1"
    name: "conv9_1_bn"
    type: "BatchNorm"
}
layer {
    bottom: "conv9_1"
    top: "conv9_1"
    name: "conv9_1_relu"
    type: "ReLU"
}
layer {
    bottom: "conv9_1"
    top: "conv9_2"
    name: "conv9_2_conv"
    type: "Convolution"
    param
    {
        lr_mult: 1.0
        decay_mult: 1.0
    }
    convolution_param {
        num_output: 256
        pad: 0
        kernel_size: 3
        stride:1
        dilation:1
        bias_term:False
        weight_filler {
            type: "xavier"
        }
    }
}
layer {
    bottom: "conv9_2"
    top: "conv9_2"
    name: "conv9_2_bn"
    type: "BatchNorm"
}
layer {
    bottom: "conv9_2"
    top: "conv9_2"
    name: "conv9_2_relu"
    type: "ReLU"
}




layer {
    bottom: "conv4_3"
    top: "FeatureMap0_0"
    name: "FeatureMap0_0_conv"
    type: "Convolution"
    param
    {
        lr_mult: 1.0
        decay_mult: 1.0
    }
    convolution_param {
        num_output: 256
        pad: 0
        kernel_size: 1
        stride:1
        dilation:1
        bias_term:False
        weight_filler {
            type: "xavier"
        }
    }
}
layer {
    bottom: "FeatureMap0_0"
    top: "FeatureMap0_0"
    name: "FeatureMap0_0_bn"
    type: "BatchNorm"
}
layer {
    bottom: "FeatureMap0_0"
    top: "FeatureMap0_0"
    name: "FeatureMap0_0_relu"
    type: "ReLU"
}
layer {
    bottom: "fc7"
    top: "FeatureMap0_1"
    name: "FeatureMap0_1_conv"
    type: "Convolution"
    param
    {
        lr_mult: 1.0
        decay_mult: 1.0
    }
    convolution_param {
        num_output: 256
        pad: 0
        kernel_size: 1
        stride:1
        dilation:1
        bias_term:False
        weight_filler {
            type: "xavier"
        }
    }
}
layer {
    bottom: "FeatureMap0_1"
    top: "FeatureMap0_1"
    name: "FeatureMap0_1_bn"
    type: "BatchNorm"
}
layer {
    bottom: "FeatureMap0_1"
    top: "FeatureMap0_1"
    name: "FeatureMap0_1_relu"
    type: "ReLU"
}
layer {
    name: "FeatureMap0_1_Upsample_deconv"
    type: "Deconvolution"
    bottom: "FeatureMap0_1"
    top: "FeatureMap0_1_Upsample"
    param {
        lr_mult: 1
        decay_mult: 1
    }
    convolution_param {
        num_output: 256
        bias_term: false
        kernel_size: 2
        pad: 0
        stride: 2
    }
}
layer {
    bottom: "FeatureMap0_1_Upsample"
    top: "FeatureMap0_1_Upsample"
    name: "FeatureMap0_1_Upsample_bn"
    type: "BatchNorm"
}

layer{
    name: "FeatureMap0_Cat"
    type: "Concat"
    bottom: "FeatureMap0_0"  bottom: "FeatureMap0_1_Upsample"  
    top: "FeatureMap0_Cat"
    concat_param{
        axis: 1    
    }
}






layer {
    bottom: "FeatureMap0_Cat"
    top: "conv4_3_norm_branch0_BasicConv0"
    name: "conv4_3_norm_branch0_BasicConv0_conv"
    type: "Convolution"
    param
    {
        lr_mult: 1.0
        decay_mult: 1.0
    }
    convolution_param {
        num_output: 64
        pad: 0
        kernel_size: 1
        stride:1
        dilation:1
        bias_term:False
        weight_filler {
            type: "xavier"
        }
    }
}
layer {
    bottom: "conv4_3_norm_branch0_BasicConv0"
    top: "conv4_3_norm_branch0_BasicConv0"
    name: "conv4_3_norm_branch0_BasicConv0_bn"
    type: "BatchNorm"
}
layer {
    bottom: "conv4_3_norm_branch0_BasicConv0"
    top: "conv4_3_norm_branch0_BasicConv0"
    name: "conv4_3_norm_branch0_BasicConv0_relu"
    type: "ReLU"
}
layer {
    bottom: "conv4_3_norm_branch0_BasicConv0"
    top: "conv4_3_norm_branch0_BasicConv2"
    name: "conv4_3_norm_branch0_BasicConv2_conv"
    type: "Convolution"
    param
    {
        lr_mult: 1.0
        decay_mult: 1.0
    }
    convolution_param {
        num_output: 64
        pad: 1
        kernel_size: 3
        stride:1
        dilation:1
        bias_term:False
        weight_filler {
            type: "xavier"
        }
    }
}
layer {
    bottom: "conv4_3_norm_branch0_BasicConv2"
    top: "conv4_3_norm_branch0_BasicConv2"
    name: "conv4_3_norm_branch0_BasicConv2_bn"
    type: "BatchNorm"
}

layer {
    bottom: "FeatureMap0_Cat"
    top: "conv4_3_norm_branch1_BasicConv0"
    name: "conv4_3_norm_branch1_BasicConv0_conv"
    type: "Convolution"
    param
    {
        lr_mult: 1.0
        decay_mult: 1.0
    }
    convolution_param {
        num_output: 64
        pad: 0
        kernel_size: 1
        stride:1
        dilation:1
        bias_term:False
        weight_filler {
            type: "xavier"
        }
    }
}
layer {
    bottom: "conv4_3_norm_branch1_BasicConv0"
    top: "conv4_3_norm_branch1_BasicConv0"
    name: "conv4_3_norm_branch1_BasicConv0_bn"
    type: "BatchNorm"
}
layer {
    bottom: "conv4_3_norm_branch1_BasicConv0"
    top: "conv4_3_norm_branch1_BasicConv0"
    name: "conv4_3_norm_branch1_BasicConv0_relu"
    type: "ReLU"
}
layer {
    bottom: "conv4_3_norm_branch1_BasicConv0"
    top: "conv4_3_norm_branch1_BasicConv1"
    name: "conv4_3_norm_branch1_BasicConv1_conv"
    type: "Convolution"
    param
    {
        lr_mult: 1.0
        decay_mult: 1.0
    }
    convolution_param {
        num_output: 64
        pad_h: 1  pad_w: 0
        kernel_h: 3  kernel_w: 1
        stride:1
        dilation:1
        bias_term:False
        weight_filler {
            type: "xavier"
        }
    }
}
layer {
    bottom: "conv4_3_norm_branch1_BasicConv1"
    top: "conv4_3_norm_branch1_BasicConv1"
    name: "conv4_3_norm_branch1_BasicConv1_bn"
    type: "BatchNorm"
}
layer {
    bottom: "conv4_3_norm_branch1_BasicConv1"
    top: "conv4_3_norm_branch1_BasicConv1"
    name: "conv4_3_norm_branch1_BasicConv1_relu"
    type: "ReLU"
}
layer {
    bottom: "conv4_3_norm_branch1_BasicConv1"
    top: "conv4_3_norm_branch1_BasicConv2"
    name: "conv4_3_norm_branch1_BasicConv2_conv"
    type: "Convolution"
    param
    {
        lr_mult: 1.0
        decay_mult: 1.0
    }
    convolution_param {
        num_output: 64
        pad: 3
        kernel_size: 3
        stride:1
        dilation:3
        bias_term:False
        weight_filler {
            type: "xavier"
        }
    }
}
layer {
    bottom: "conv4_3_norm_branch1_BasicConv2"
    top: "conv4_3_norm_branch1_BasicConv2"
    name: "conv4_3_norm_branch1_BasicConv2_bn"
    type: "BatchNorm"
}

layer {
    bottom: "FeatureMap0_Cat"
    top: "conv4_3_norm_branch2_BasicConv0"
    name: "conv4_3_norm_branch2_BasicConv0_conv"
    type: "Convolution"
    param
    {
        lr_mult: 1.0
        decay_mult: 1.0
    }
    convolution_param {
        num_output: 64
        pad: 0
        kernel_size: 1
        stride:1
        dilation:1
        bias_term:False
        weight_filler {
            type: "xavier"
        }
    }
}
layer {
    bottom: "conv4_3_norm_branch2_BasicConv0"
    top: "conv4_3_norm_branch2_BasicConv0"
    name: "conv4_3_norm_branch2_BasicConv0_bn"
    type: "BatchNorm"
}
layer {
    bottom: "conv4_3_norm_branch2_BasicConv0"
    top: "conv4_3_norm_branch2_BasicConv0"
    name: "conv4_3_norm_branch2_BasicConv0_relu"
    type: "ReLU"
}
layer {
    bottom: "conv4_3_norm_branch2_BasicConv0"
    top: "conv4_3_norm_branch2_BasicConv1"
    name: "conv4_3_norm_branch2_BasicConv1_conv"
    type: "Convolution"
    param
    {
        lr_mult: 1.0
        decay_mult: 1.0
    }
    convolution_param {
        num_output: 64
        pad_h: 0  pad_w: 1
        kernel_h: 1  kernel_w: 3
        stride:1
        dilation:1
        bias_term:False
        weight_filler {
            type: "xavier"
        }
    }
}
layer {
    bottom: "conv4_3_norm_branch2_BasicConv1"
    top: "conv4_3_norm_branch2_BasicConv1"
    name: "conv4_3_norm_branch2_BasicConv1_bn"
    type: "BatchNorm"
}
layer {
    bottom: "conv4_3_norm_branch2_BasicConv1"
    top: "conv4_3_norm_branch2_BasicConv1"
    name: "conv4_3_norm_branch2_BasicConv1_relu"
    type: "ReLU"
}
layer {
    bottom: "conv4_3_norm_branch2_BasicConv1"
    top: "conv4_3_norm_branch2_BasicConv2"
    name: "conv4_3_norm_branch2_BasicConv2_conv"
    type: "Convolution"
    param
    {
        lr_mult: 1.0
        decay_mult: 1.0
    }
    convolution_param {
        num_output: 64
        pad: 3
        kernel_size: 3
        stride:1
        dilation:3
        bias_term:False
        weight_filler {
            type: "xavier"
        }
    }
}
layer {
    bottom: "conv4_3_norm_branch2_BasicConv2"
    top: "conv4_3_norm_branch2_BasicConv2"
    name: "conv4_3_norm_branch2_BasicConv2_bn"
    type: "BatchNorm"
}

layer {
    bottom: "FeatureMap0_Cat"
    top: "conv4_3_norm_branch3_BasicConv0"
    name: "conv4_3_norm_branch3_BasicConv0_conv"
    type: "Convolution"
    param
    {
        lr_mult: 1.0
        decay_mult: 1.0
    }
    convolution_param {
        num_output: 64
        pad: 0
        kernel_size: 1
        stride:1
        dilation:1
        bias_term:False
        weight_filler {
            type: "xavier"
        }
    }
}
layer {
    bottom: "conv4_3_norm_branch3_BasicConv0"
    top: "conv4_3_norm_branch3_BasicConv0"
    name: "conv4_3_norm_branch3_BasicConv0_bn"
    type: "BatchNorm"
}
layer {
    bottom: "conv4_3_norm_branch3_BasicConv0"
    top: "conv4_3_norm_branch3_BasicConv0"
    name: "conv4_3_norm_branch3_BasicConv0_relu"
    type: "ReLU"
}
layer {
    bottom: "conv4_3_norm_branch3_BasicConv0"
    top: "conv4_3_norm_branch3_BasicConv1"
    name: "conv4_3_norm_branch3_BasicConv1_conv"
    type: "Convolution"
    param
    {
        lr_mult: 1.0
        decay_mult: 1.0
    }
    convolution_param {
        num_output: 64
        pad_h: 1  pad_w: 0
        kernel_h: 3  kernel_w: 1
        stride:1
        dilation:1
        bias_term:False
        weight_filler {
            type: "xavier"
        }
    }
}
layer {
    bottom: "conv4_3_norm_branch3_BasicConv1"
    top: "conv4_3_norm_branch3_BasicConv1"
    name: "conv4_3_norm_branch3_BasicConv1_bn"
    type: "BatchNorm"
}
layer {
    bottom: "conv4_3_norm_branch3_BasicConv1"
    top: "conv4_3_norm_branch3_BasicConv1"
    name: "conv4_3_norm_branch3_BasicConv1_relu"
    type: "ReLU"
}
layer {
    bottom: "conv4_3_norm_branch3_BasicConv1"
    top: "conv4_3_norm_branch3_BasicConv2"
    name: "conv4_3_norm_branch3_BasicConv2_conv"
    type: "Convolution"
    param
    {
        lr_mult: 1.0
        decay_mult: 1.0
    }
    convolution_param {
        num_output: 64
        pad: 5
        kernel_size: 3
        stride:1
        dilation:5
        bias_term:False
        weight_filler {
            type: "xavier"
        }
    }
}
layer {
    bottom: "conv4_3_norm_branch3_BasicConv2"
    top: "conv4_3_norm_branch3_BasicConv2"
    name: "conv4_3_norm_branch3_BasicConv2_bn"
    type: "BatchNorm"
}

layer {
    bottom: "FeatureMap0_Cat"
    top: "conv4_3_norm_branch4_BasicConv0"
    name: "conv4_3_norm_branch4_BasicConv0_conv"
    type: "Convolution"
    param
    {
        lr_mult: 1.0
        decay_mult: 1.0
    }
    convolution_param {
        num_output: 64
        pad: 0
        kernel_size: 1
        stride:1
        dilation:1
        bias_term:False
        weight_filler {
            type: "xavier"
        }
    }
}
layer {
    bottom: "conv4_3_norm_branch4_BasicConv0"
    top: "conv4_3_norm_branch4_BasicConv0"
    name: "conv4_3_norm_branch4_BasicConv0_bn"
    type: "BatchNorm"
}
layer {
    bottom: "conv4_3_norm_branch4_BasicConv0"
    top: "conv4_3_norm_branch4_BasicConv0"
    name: "conv4_3_norm_branch4_BasicConv0_relu"
    type: "ReLU"
}
layer {
    bottom: "conv4_3_norm_branch4_BasicConv0"
    top: "conv4_3_norm_branch4_BasicConv1"
    name: "conv4_3_norm_branch4_BasicConv1_conv"
    type: "Convolution"
    param
    {
        lr_mult: 1.0
        decay_mult: 1.0
    }
    convolution_param {
        num_output: 64
        pad_h: 0  pad_w: 1
        kernel_h: 1  kernel_w: 3
        stride:1
        dilation:1
        bias_term:False
        weight_filler {
            type: "xavier"
        }
    }
}
layer {
    bottom: "conv4_3_norm_branch4_BasicConv1"
    top: "conv4_3_norm_branch4_BasicConv1"
    name: "conv4_3_norm_branch4_BasicConv1_bn"
    type: "BatchNorm"
}
layer {
    bottom: "conv4_3_norm_branch4_BasicConv1"
    top: "conv4_3_norm_branch4_BasicConv1"
    name: "conv4_3_norm_branch4_BasicConv1_relu"
    type: "ReLU"
}
layer {
    bottom: "conv4_3_norm_branch4_BasicConv1"
    top: "conv4_3_norm_branch4_BasicConv2"
    name: "conv4_3_norm_branch4_BasicConv2_conv"
    type: "Convolution"
    param
    {
        lr_mult: 1.0
        decay_mult: 1.0
    }
    convolution_param {
        num_output: 64
        pad: 5
        kernel_size: 3
        stride:1
        dilation:5
        bias_term:False
        weight_filler {
            type: "xavier"
        }
    }
}
layer {
    bottom: "conv4_3_norm_branch4_BasicConv2"
    top: "conv4_3_norm_branch4_BasicConv2"
    name: "conv4_3_norm_branch4_BasicConv2_bn"
    type: "BatchNorm"
}

layer {
    bottom: "FeatureMap0_Cat"
    top: "conv4_3_norm_branch5_BasicConv0"
    name: "conv4_3_norm_branch5_BasicConv0_conv"
    type: "Convolution"
    param
    {
        lr_mult: 1.0
        decay_mult: 1.0
    }
    convolution_param {
        num_output: 32
        pad: 0
        kernel_size: 1
        stride:1
        dilation:1
        bias_term:False
        weight_filler {
            type: "xavier"
        }
    }
}
layer {
    bottom: "conv4_3_norm_branch5_BasicConv0"
    top: "conv4_3_norm_branch5_BasicConv0"
    name: "conv4_3_norm_branch5_BasicConv0_bn"
    type: "BatchNorm"
}
layer {
    bottom: "conv4_3_norm_branch5_BasicConv0"
    top: "conv4_3_norm_branch5_BasicConv0"
    name: "conv4_3_norm_branch5_BasicConv0_relu"
    type: "ReLU"
}
layer {
    bottom: "conv4_3_norm_branch5_BasicConv0"
    top: "conv4_3_norm_branch5_BasicConv1"
    name: "conv4_3_norm_branch5_BasicConv1_conv"
    type: "Convolution"
    param
    {
        lr_mult: 1.0
        decay_mult: 1.0
    }
    convolution_param {
        num_output: 48
        pad_h: 0  pad_w: 1
        kernel_h: 1  kernel_w: 3
        stride:1
        dilation:1
        bias_term:False
        weight_filler {
            type: "xavier"
        }
    }
}
layer {
    bottom: "conv4_3_norm_branch5_BasicConv1"
    top: "conv4_3_norm_branch5_BasicConv1"
    name: "conv4_3_norm_branch5_BasicConv1_bn"
    type: "BatchNorm"
}
layer {
    bottom: "conv4_3_norm_branch5_BasicConv1"
    top: "conv4_3_norm_branch5_BasicConv1"
    name: "conv4_3_norm_branch5_BasicConv1_relu"
    type: "ReLU"
}
layer {
    bottom: "conv4_3_norm_branch5_BasicConv1"
    top: "conv4_3_norm_branch5_BasicConv2"
    name: "conv4_3_norm_branch5_BasicConv2_conv"
    type: "Convolution"
    param
    {
        lr_mult: 1.0
        decay_mult: 1.0
    }
    convolution_param {
        num_output: 64
        pad_h: 1  pad_w: 0
        kernel_h: 3  kernel_w: 1
        stride:1
        dilation:1
        bias_term:False
        weight_filler {
            type: "xavier"
        }
    }
}
layer {
    bottom: "conv4_3_norm_branch5_BasicConv2"
    top: "conv4_3_norm_branch5_BasicConv2"
    name: "conv4_3_norm_branch5_BasicConv2_bn"
    type: "BatchNorm"
}
layer {
    bottom: "conv4_3_norm_branch5_BasicConv2"
    top: "conv4_3_norm_branch5_BasicConv2"
    name: "conv4_3_norm_branch5_BasicConv2_relu"
    type: "ReLU"
}
layer {
    bottom: "conv4_3_norm_branch5_BasicConv2"
    top: "conv4_3_norm_branch5_BasicConv3"
    name: "conv4_3_norm_branch5_BasicConv3_conv"
    type: "Convolution"
    param
    {
        lr_mult: 1.0
        decay_mult: 1.0
    }
    convolution_param {
        num_output: 64
        pad: 7
        kernel_size: 3
        stride:1
        dilation:7
        bias_term:False
        weight_filler {
            type: "xavier"
        }
    }
}
layer {
    bottom: "conv4_3_norm_branch5_BasicConv3"
    top: "conv4_3_norm_branch5_BasicConv3"
    name: "conv4_3_norm_branch5_BasicConv3_bn"
    type: "BatchNorm"
}

layer {
    bottom: "FeatureMap0_Cat"
    top: "conv4_3_norm_branch6_BasicConv0"
    name: "conv4_3_norm_branch6_BasicConv0_conv"
    type: "Convolution"
    param
    {
        lr_mult: 1.0
        decay_mult: 1.0
    }
    convolution_param {
        num_output: 32
        pad: 0
        kernel_size: 1
        stride:1
        dilation:1
        bias_term:False
        weight_filler {
            type: "xavier"
        }
    }
}
layer {
    bottom: "conv4_3_norm_branch6_BasicConv0"
    top: "conv4_3_norm_branch6_BasicConv0"
    name: "conv4_3_norm_branch6_BasicConv0_bn"
    type: "BatchNorm"
}
layer {
    bottom: "conv4_3_norm_branch6_BasicConv0"
    top: "conv4_3_norm_branch6_BasicConv0"
    name: "conv4_3_norm_branch6_BasicConv0_relu"
    type: "ReLU"
}
layer {
    bottom: "conv4_3_norm_branch6_BasicConv0"
    top: "conv4_3_norm_branch6_BasicConv1"
    name: "conv4_3_norm_branch6_BasicConv1_conv"
    type: "Convolution"
    param
    {
        lr_mult: 1.0
        decay_mult: 1.0
    }
    convolution_param {
        num_output: 48
        pad_h: 1  pad_w: 0
        kernel_h: 3  kernel_w: 1
        stride:1
        dilation:1
        bias_term:False
        weight_filler {
            type: "xavier"
        }
    }
}
layer {
    bottom: "conv4_3_norm_branch6_BasicConv1"
    top: "conv4_3_norm_branch6_BasicConv1"
    name: "conv4_3_norm_branch6_BasicConv1_bn"
    type: "BatchNorm"
}
layer {
    bottom: "conv4_3_norm_branch6_BasicConv1"
    top: "conv4_3_norm_branch6_BasicConv1"
    name: "conv4_3_norm_branch6_BasicConv1_relu"
    type: "ReLU"
}
layer {
    bottom: "conv4_3_norm_branch6_BasicConv1"
    top: "conv4_3_norm_branch6_BasicConv2"
    name: "conv4_3_norm_branch6_BasicConv2_conv"
    type: "Convolution"
    param
    {
        lr_mult: 1.0
        decay_mult: 1.0
    }
    convolution_param {
        num_output: 64
        pad_h: 0  pad_w: 1
        kernel_h: 1  kernel_w: 3
        stride:1
        dilation:1
        bias_term:False
        weight_filler {
            type: "xavier"
        }
    }
}
layer {
    bottom: "conv4_3_norm_branch6_BasicConv2"
    top: "conv4_3_norm_branch6_BasicConv2"
    name: "conv4_3_norm_branch6_BasicConv2_bn"
    type: "BatchNorm"
}
layer {
    bottom: "conv4_3_norm_branch6_BasicConv2"
    top: "conv4_3_norm_branch6_BasicConv2"
    name: "conv4_3_norm_branch6_BasicConv2_relu"
    type: "ReLU"
}
layer {
    bottom: "conv4_3_norm_branch6_BasicConv2"
    top: "conv4_3_norm_branch6_BasicConv3"
    name: "conv4_3_norm_branch6_BasicConv3_conv"
    type: "Convolution"
    param
    {
        lr_mult: 1.0
        decay_mult: 1.0
    }
    convolution_param {
        num_output: 64
        pad: 7
        kernel_size: 3
        stride:1
        dilation:7
        bias_term:False
        weight_filler {
            type: "xavier"
        }
    }
}
layer {
    bottom: "conv4_3_norm_branch6_BasicConv3"
    top: "conv4_3_norm_branch6_BasicConv3"
    name: "conv4_3_norm_branch6_BasicConv3_bn"
    type: "BatchNorm"
}

layer{
    name: "conv4_3_norm_Concat"
    type: "Concat"
    bottom: "conv4_3_norm_branch0_BasicConv2"  bottom: "conv4_3_norm_branch1_BasicConv2"  bottom: "conv4_3_norm_branch2_BasicConv2"  bottom: "conv4_3_norm_branch3_BasicConv2"  bottom: "conv4_3_norm_branch4_BasicConv2"  bottom: "conv4_3_norm_branch5_BasicConv3"  bottom: "conv4_3_norm_branch6_BasicConv3"  
    top: "conv4_3_norm_Concat"
    concat_param{
        axis: 1    
    }
}
layer {
    bottom: "conv4_3_norm_Concat"
    top: "conv4_3_norm_ConvLinear"
    name: "conv4_3_norm_ConvLinear_conv"
    type: "Convolution"
    param
    {
        lr_mult: 1.0
        decay_mult: 1.0
    }
    convolution_param {
        num_output: 512
        pad: 0
        kernel_size: 1
        stride:1
        dilation:1
        bias_term:False
        weight_filler {
            type: "xavier"
        }
    }
}
layer {
    bottom: "conv4_3_norm_ConvLinear"
    top: "conv4_3_norm_ConvLinear"
    name: "conv4_3_norm_ConvLinear_bn"
    type: "BatchNorm"
}
layer {
    bottom: "FeatureMap0_Cat"
    top: "conv4_3_norm_HightWay_BasicConv"
    name: "conv4_3_norm_HightWay_BasicConv_conv"
    type: "Convolution"
    param
    {
        lr_mult: 1.0
        decay_mult: 1.0
    }
    convolution_param {
        num_output: 512
        pad: 0
        kernel_size: 1
        stride:1
        dilation:1
        bias_term:False
        weight_filler {
            type: "xavier"
        }
    }
}
layer {
    bottom: "conv4_3_norm_HightWay_BasicConv"
    top: "conv4_3_norm_HightWay_BasicConv"
    name: "conv4_3_norm_HightWay_BasicConv_bn"
    type: "BatchNorm"
}
layer{
    name: "conv4_3_norm_ShurtCut"
    type: "Eltwise"
    bottom: "conv4_3_norm_HightWay_BasicConv"  bottom: "conv4_3_norm_ConvLinear"  
    top: "conv4_3_norm_ShurtCut"
    eltwise_param {
        operation: SUM
        coeff: 1
        coeff: 1
    }
}layer {
    bottom: "conv4_3_norm_ShurtCut"
    top: "conv4_3_norm_ShurtCut"
    name: "conv4_3_norm_Relu"
    type: "ReLU"
}







layer {
  name: "conv4_3_norm_mbox_loc"
  type: "Convolution"
  bottom: "conv4_3_norm_ShurtCut"
  top: "conv4_3_norm_mbox_loc"
  param {
    lr_mult: 1.0
    decay_mult: 1.0
  }
  param {
    lr_mult: 2.0
    decay_mult: 0.0
  }
  convolution_param {
    num_output: 16
    pad: 1
    kernel_size: 3
    stride: 1
    weight_filler {
      type: "xavier"
    }
    bias_filler {
      type: "constant"
      value: 0.0
    }
  }
}
layer {
  name: "conv4_3_norm_mbox_loc_perm"
  type: "Permute"
  bottom: "conv4_3_norm_mbox_loc"
  top: "conv4_3_norm_mbox_loc_perm"
  permute_param {
    order: 0
    order: 2
    order: 3
    order: 1
  }
}
layer {
  name: "conv4_3_norm_mbox_loc_flat"
  type: "Flatten"
  bottom: "conv4_3_norm_mbox_loc_perm"
  top: "conv4_3_norm_mbox_loc_flat"
  flatten_param {
    axis: 1
  }
}
layer {
  name: "conv4_3_norm_mbox_conf"
  type: "Convolution"
  bottom: "conv4_3_norm_ShurtCut"
  top: "conv4_3_norm_mbox_conf"
  param {
    lr_mult: 1.0
    decay_mult: 1.0
  }
  param {
    lr_mult: 2.0
    decay_mult: 0.0
  }
  convolution_param {
    num_output: 36
    pad: 1
    kernel_size: 3
    stride: 1
    weight_filler {
      type: "xavier"
    }
    bias_filler {
      type: "constant"
      value: 0.0
    }
  }
}
layer {
  name: "conv4_3_norm_mbox_conf_perm"
  type: "Permute"
  bottom: "conv4_3_norm_mbox_conf"
  top: "conv4_3_norm_mbox_conf_perm"
  permute_param {
    order: 0
    order: 2
    order: 3
    order: 1
  }
}
layer {
  name: "conv4_3_norm_mbox_conf_flat"
  type: "Flatten"
  bottom: "conv4_3_norm_mbox_conf_perm"
  top: "conv4_3_norm_mbox_conf_flat"
  flatten_param {
    axis: 1
  }
}
layer {
  name: "conv4_3_norm_mbox_priorbox"
  type: "PriorBox"
  bottom: "conv4_3_norm_ShurtCut"
  bottom: "data"
  top: "conv4_3_norm_mbox_priorbox"
  prior_box_param {
    min_size: 30.0
    max_size: 60.0
    aspect_ratio: 2.0
    flip: true
    clip: false
    variance: 0.10000000149011612
    variance: 0.10000000149011612
    variance: 0.20000000298023224
    variance: 0.20000000298023224
    step: 8.0
    offset: 0.5
  }
}
layer {
  name: "fc7_mbox_loc"
  type: "Convolution"
  bottom: "conv6_1"
  top: "fc7_mbox_loc"
  param {
    lr_mult: 1.0
    decay_mult: 1.0
  }
  param {
    lr_mult: 2.0
    decay_mult: 0.0
  }
  convolution_param {
    num_output: 24
    pad: 1
    kernel_size: 3
    stride: 1
    weight_filler {
      type: "xavier"
    }
    bias_filler {
      type: "constant"
      value: 0.0
    }
  }
}
layer {
  name: "fc7_mbox_loc_perm"
  type: "Permute"
  bottom: "fc7_mbox_loc"
  top: "fc7_mbox_loc_perm"
  permute_param {
    order: 0
    order: 2
    order: 3
    order: 1
  }
}
layer {
  name: "fc7_mbox_loc_flat"
  type: "Flatten"
  bottom: "fc7_mbox_loc_perm"
  top: "fc7_mbox_loc_flat"
  flatten_param {
    axis: 1
  }
}
layer {
  name: "fc7_mbox_conf"
  type: "Convolution"
  bottom: "conv6_1"
  top: "fc7_mbox_conf"
  param {
    lr_mult: 1.0
    decay_mult: 1.0
  }
  param {
    lr_mult: 2.0
    decay_mult: 0.0
  }
  convolution_param {
    num_output: 54
    pad: 1
    kernel_size: 3
    stride: 1
    weight_filler {
      type: "xavier"
    }
    bias_filler {
      type: "constant"
      value: 0.0
    }
  }
}
layer {
  name: "fc7_mbox_conf_perm"
  type: "Permute"
  bottom: "fc7_mbox_conf"
  top: "fc7_mbox_conf_perm"
  permute_param {
    order: 0
    order: 2
    order: 3
    order: 1
  }
}
layer {
  name: "fc7_mbox_conf_flat"
  type: "Flatten"
  bottom: "fc7_mbox_conf_perm"
  top: "fc7_mbox_conf_flat"
  flatten_param {
    axis: 1
  }
}
layer {
  name: "fc7_mbox_priorbox"
  type: "PriorBox"
  bottom: "conv6_1"
  bottom: "data"
  top: "fc7_mbox_priorbox"
  prior_box_param {
    min_size: 60.0
    max_size: 111.0
    aspect_ratio: 2.0
    aspect_ratio: 3.0
    flip: true
    clip: false
    variance: 0.10000000149011612
    variance: 0.10000000149011612
    variance: 0.20000000298023224
    variance: 0.20000000298023224
    step: 16.0
    offset: 0.5
  }
}
layer {
  name: "conv6_2_mbox_loc"
  type: "Convolution"
  bottom: "conv6_2"
  top: "conv6_2_mbox_loc"
  param {
    lr_mult: 1.0
    decay_mult: 1.0
  }
  param {
    lr_mult: 2.0
    decay_mult: 0.0
  }
  convolution_param {
    num_output: 24
    pad: 1
    kernel_size: 3
    stride: 1
    weight_filler {
      type: "xavier"
    }
    bias_filler {
      type: "constant"
      value: 0.0
    }
  }
}
layer {
  name: "conv6_2_mbox_loc_perm"
  type: "Permute"
  bottom: "conv6_2_mbox_loc"
  top: "conv6_2_mbox_loc_perm"
  permute_param {
    order: 0
    order: 2
    order: 3
    order: 1
  }
}
layer {
  name: "conv6_2_mbox_loc_flat"
  type: "Flatten"
  bottom: "conv6_2_mbox_loc_perm"
  top: "conv6_2_mbox_loc_flat"
  flatten_param {
    axis: 1
  }
}
layer {
  name: "conv6_2_mbox_conf"
  type: "Convolution"
  bottom: "conv6_2"
  top: "conv6_2_mbox_conf"
  param {
    lr_mult: 1.0
    decay_mult: 1.0
  }
  param {
    lr_mult: 2.0
    decay_mult: 0.0
  }
  convolution_param {
    num_output: 54
    pad: 1
    kernel_size: 3
    stride: 1
    weight_filler {
      type: "xavier"
    }
    bias_filler {
      type: "constant"
      value: 0.0
    }
  }
}
layer {
  name: "conv6_2_mbox_conf_perm"
  type: "Permute"
  bottom: "conv6_2_mbox_conf"
  top: "conv6_2_mbox_conf_perm"
  permute_param {
    order: 0
    order: 2
    order: 3
    order: 1
  }
}
layer {
  name: "conv6_2_mbox_conf_flat"
  type: "Flatten"
  bottom: "conv6_2_mbox_conf_perm"
  top: "conv6_2_mbox_conf_flat"
  flatten_param {
    axis: 1
  }
}
layer {
  name: "conv6_2_mbox_priorbox"
  type: "PriorBox"
  bottom: "conv6_2"
  bottom: "data"
  top: "conv6_2_mbox_priorbox"
  prior_box_param {
    min_size: 111.0
    max_size: 162.0
    aspect_ratio: 2.0
    aspect_ratio: 3.0
    flip: true
    clip: false
    variance: 0.10000000149011612
    variance: 0.10000000149011612
    variance: 0.20000000298023224
    variance: 0.20000000298023224
    step: 32.0
    offset: 0.5
  }
}
layer {
  name: "conv7_2_mbox_loc"
  type: "Convolution"
  bottom: "conv7_2"
  top: "conv7_2_mbox_loc"
  param {
    lr_mult: 1.0
    decay_mult: 1.0
  }
  param {
    lr_mult: 2.0
    decay_mult: 0.0
  }
  convolution_param {
    num_output: 24
    pad: 1
    kernel_size: 3
    stride: 1
    weight_filler {
      type: "xavier"
    }
    bias_filler {
      type: "constant"
      value: 0.0
    }
  }
}
layer {
  name: "conv7_2_mbox_loc_perm"
  type: "Permute"
  bottom: "conv7_2_mbox_loc"
  top: "conv7_2_mbox_loc_perm"
  permute_param {
    order: 0
    order: 2
    order: 3
    order: 1
  }
}
layer {
  name: "conv7_2_mbox_loc_flat"
  type: "Flatten"
  bottom: "conv7_2_mbox_loc_perm"
  top: "conv7_2_mbox_loc_flat"
  flatten_param {
    axis: 1
  }
}
layer {
  name: "conv7_2_mbox_conf"
  type: "Convolution"
  bottom: "conv7_2"
  top: "conv7_2_mbox_conf"
  param {
    lr_mult: 1.0
    decay_mult: 1.0
  }
  param {
    lr_mult: 2.0
    decay_mult: 0.0
  }
  convolution_param {
    num_output: 54
    pad: 1
    kernel_size: 3
    stride: 1
    weight_filler {
      type: "xavier"
    }
    bias_filler {
      type: "constant"
      value: 0.0
    }
  }
}
layer {
  name: "conv7_2_mbox_conf_perm"
  type: "Permute"
  bottom: "conv7_2_mbox_conf"
  top: "conv7_2_mbox_conf_perm"
  permute_param {
    order: 0
    order: 2
    order: 3
    order: 1
  }
}
layer {
  name: "conv7_2_mbox_conf_flat"
  type: "Flatten"
  bottom: "conv7_2_mbox_conf_perm"
  top: "conv7_2_mbox_conf_flat"
  flatten_param {
    axis: 1
  }
}
layer {
  name: "conv7_2_mbox_priorbox"
  type: "PriorBox"
  bottom: "conv7_2"
  bottom: "data"
  top: "conv7_2_mbox_priorbox"
  prior_box_param {
    min_size: 162.0
    max_size: 213.0
    aspect_ratio: 2.0
    aspect_ratio: 3.0
    flip: true
    clip: false
    variance: 0.10000000149011612
    variance: 0.10000000149011612
    variance: 0.20000000298023224
    variance: 0.20000000298023224
    step: 64.0
    offset: 0.5
  }
}
layer {
  name: "conv8_2_mbox_loc"
  type: "Convolution"
  bottom: "conv8_2"
  top: "conv8_2_mbox_loc"
  param {
    lr_mult: 1.0
    decay_mult: 1.0
  }
  param {
    lr_mult: 2.0
    decay_mult: 0.0
  }
  convolution_param {
    num_output: 16
    pad: 1
    kernel_size: 3
    stride: 1
    weight_filler {
      type: "xavier"
    }
    bias_filler {
      type: "constant"
      value: 0.0
    }
  }
}
layer {
  name: "conv8_2_mbox_loc_perm"
  type: "Permute"
  bottom: "conv8_2_mbox_loc"
  top: "conv8_2_mbox_loc_perm"
  permute_param {
    order: 0
    order: 2
    order: 3
    order: 1
  }
}
layer {
  name: "conv8_2_mbox_loc_flat"
  type: "Flatten"
  bottom: "conv8_2_mbox_loc_perm"
  top: "conv8_2_mbox_loc_flat"
  flatten_param {
    axis: 1
  }
}
layer {
  name: "conv8_2_mbox_conf"
  type: "Convolution"
  bottom: "conv8_2"
  top: "conv8_2_mbox_conf"
  param {
    lr_mult: 1.0
    decay_mult: 1.0
  }
  param {
    lr_mult: 2.0
    decay_mult: 0.0
  }
  convolution_param {
    num_output: 36
    pad: 1
    kernel_size: 3
    stride: 1
    weight_filler {
      type: "xavier"
    }
    bias_filler {
      type: "constant"
      value: 0.0
    }
  }
}
layer {
  name: "conv8_2_mbox_conf_perm"
  type: "Permute"
  bottom: "conv8_2_mbox_conf"
  top: "conv8_2_mbox_conf_perm"
  permute_param {
    order: 0
    order: 2
    order: 3
    order: 1
  }
}
layer {
  name: "conv8_2_mbox_conf_flat"
  type: "Flatten"
  bottom: "conv8_2_mbox_conf_perm"
  top: "conv8_2_mbox_conf_flat"
  flatten_param {
    axis: 1
  }
}
layer {
  name: "conv8_2_mbox_priorbox"
  type: "PriorBox"
  bottom: "conv8_2"
  bottom: "data"
  top: "conv8_2_mbox_priorbox"
  prior_box_param {
    min_size: 213.0
    max_size: 264.0
    aspect_ratio: 2.0
    flip: true
    clip: false
    variance: 0.10000000149011612
    variance: 0.10000000149011612
    variance: 0.20000000298023224
    variance: 0.20000000298023224
    step: 100.0
    offset: 0.5
  }
}
layer {
  name: "conv9_2_mbox_loc"
  type: "Convolution"
  bottom: "conv9_2"
  top: "conv9_2_mbox_loc"
  param {
    lr_mult: 1.0
    decay_mult: 1.0
  }
  param {
    lr_mult: 2.0
    decay_mult: 0.0
  }
  convolution_param {
    num_output: 16
    pad: 1
    kernel_size: 3
    stride: 1
    weight_filler {
      type: "xavier"
    }
    bias_filler {
      type: "constant"
      value: 0.0
    }
  }
}
layer {
  name: "conv9_2_mbox_loc_perm"
  type: "Permute"
  bottom: "conv9_2_mbox_loc"
  top: "conv9_2_mbox_loc_perm"
  permute_param {
    order: 0
    order: 2
    order: 3
    order: 1
  }
}
layer {
  name: "conv9_2_mbox_loc_flat"
  type: "Flatten"
  bottom: "conv9_2_mbox_loc_perm"
  top: "conv9_2_mbox_loc_flat"
  flatten_param {
    axis: 1
  }
}
layer {
  name: "conv9_2_mbox_conf"
  type: "Convolution"
  bottom: "conv9_2"
  top: "conv9_2_mbox_conf"
  param {
    lr_mult: 1.0
    decay_mult: 1.0
  }
  param {
    lr_mult: 2.0
    decay_mult: 0.0
  }
  convolution_param {
    num_output: 36
    pad: 1
    kernel_size: 3
    stride: 1
    weight_filler {
      type: "xavier"
    }
    bias_filler {
      type: "constant"
      value: 0.0
    }
  }
}
layer {
  name: "conv9_2_mbox_conf_perm"
  type: "Permute"
  bottom: "conv9_2_mbox_conf"
  top: "conv9_2_mbox_conf_perm"
  permute_param {
    order: 0
    order: 2
    order: 3
    order: 1
  }
}
layer {
  name: "conv9_2_mbox_conf_flat"
  type: "Flatten"
  bottom: "conv9_2_mbox_conf_perm"
  top: "conv9_2_mbox_conf_flat"
  flatten_param {
    axis: 1
  }
}
layer {
  name: "conv9_2_mbox_priorbox"
  type: "PriorBox"
  bottom: "conv9_2"
  bottom: "data"
  top: "conv9_2_mbox_priorbox"
  prior_box_param {
    min_size: 264.0
    max_size: 315.0
    aspect_ratio: 2.0
    flip: true
    clip: false
    variance: 0.10000000149011612
    variance: 0.10000000149011612
    variance: 0.20000000298023224
    variance: 0.20000000298023224
    step: 300.0
    offset: 0.5
  }
}
layer {
  name: "mbox_loc"
  type: "Concat"
  bottom: "conv4_3_norm_mbox_loc_flat"
  bottom: "fc7_mbox_loc_flat"
  bottom: "conv6_2_mbox_loc_flat"
  bottom: "conv7_2_mbox_loc_flat"
  bottom: "conv8_2_mbox_loc_flat"
  bottom: "conv9_2_mbox_loc_flat"
  top: "mbox_loc"
  concat_param {
    axis: 1
  }
}
layer {
  name: "mbox_conf"
  type: "Concat"
  bottom: "conv4_3_norm_mbox_conf_flat"
  bottom: "fc7_mbox_conf_flat"
  bottom: "conv6_2_mbox_conf_flat"
  bottom: "conv7_2_mbox_conf_flat"
  bottom: "conv8_2_mbox_conf_flat"
  bottom: "conv9_2_mbox_conf_flat"
  top: "mbox_conf"
  concat_param {
    axis: 1
  }
}
layer {
  name: "mbox_priorbox"
  type: "Concat"
  bottom: "conv4_3_norm_mbox_priorbox"
  bottom: "fc7_mbox_priorbox"
  bottom: "conv6_2_mbox_priorbox"
  bottom: "conv7_2_mbox_priorbox"
  bottom: "conv8_2_mbox_priorbox"
  bottom: "conv9_2_mbox_priorbox"
  top: "mbox_priorbox"
  concat_param {
    axis: 2
  }
}
layer {
  name: "mbox_conf_reshape"
  type: "Reshape"
  bottom: "mbox_conf"
  top: "mbox_conf_reshape"
  reshape_param {
    shape {
      dim: 0
      dim: -1
      dim: 9
    }
  }
}
layer {
  name: "mbox_conf_softmax"
  type: "Softmax"
  bottom: "mbox_conf_reshape"
  top: "mbox_conf_softmax"
  softmax_param {
    axis: 2
  }
}
layer {
  name: "mbox_conf_flatten"
  type: "Flatten"
  bottom: "mbox_conf_softmax"
  top: "mbox_conf_flatten"
  flatten_param {
    axis: 1
  }
}
layer {
  name: "detection_out"
  type: "DetectionOutput"
  bottom: "mbox_loc"
  bottom: "mbox_conf_flatten"
  bottom: "mbox_priorbox"
  top: "detection_out"
  include {
    phase: TEST
  }
  detection_output_param {
    num_classes: 9
    share_location: true
    background_label_id: 0
    nms_param {
      nms_threshold: 0.44999998807907104
      top_k: 400
    }
    save_output_param {
      output_directory: "/home/liuky/HDD_1/workspace/C/caffe/data/custom_obj_detect/Main"
      output_name_prefix: "comp4_det_test_"
      output_format: "VOC"
      label_map_file: "/home/liuky/HDD_1/workspace/C/caffe/examples/custom_obj_detect/labelmap_smoke.prototxt"
      name_size_file: "/home/liuky/HDD_1/workspace/C/caffe/data/custom_obj_detect/test_name_size.txt"
      num_test_image: 173
    }
    code_type: CENTER_SIZE
    keep_top_k: 200
    confidence_threshold: 0.009999999776482582
  }
}
layer {
  name: "detection_eval"
  type: "DetectionEvaluate"
  bottom: "detection_out"
  bottom: "label"
  top: "detection_eval"
  include {
    phase: TEST
  }
  detection_evaluate_param {
    num_classes: 9
    background_label_id: 0
    overlap_threshold: 0.5
    evaluate_difficult_gt: false
    name_size_file: "/home/liuky/HDD_1/workspace/C/caffe/data/custom_obj_detect/test_name_size.txt"
  }
}

